…
Test accuracy: 98.76 % Test loss: 0.0524
[INFO] Register count_convNd() for <class 'torch.nn.modules.conv.Conv2d'>.
[INFO] Register zero_ops() for <class 'torch.nn.modules.pooling.MaxPool2d'>.
[INFO] Register count_linear() for <class 'torch.nn.modules.linear.Linear'>.
[91m[WARN] Cannot find rule for <class '__main__.SimpleCNN'>. Treat it as zero Macs and zero Params.[00m
MACS: 3907456.0
GFLOPS: 1953728.0
----------------------------------------------------------------
        Layer (type)               Output Shape         Param #
================================================================
            Conv2d-1           [-1, 32, 28, 28]             320
         MaxPool2d-2           [-1, 32, 14, 14]               0
            Conv2d-3           [-1, 64, 14, 14]          18,496
         MaxPool2d-4             [-1, 64, 7, 7]               0
            Linear-5                   [-1, 10]          31,370
================================================================
Total params: 50,186
Trainable params: 50,186
Non-trainable params: 0
----------------------------------------------------------------
Input size (MB): 0.00
Forward/backward pass size (MB): 0.36
Params size (MB): 0.19
Estimated Total Size (MB): 0.55
----------------------------------------------------------------
